…
{"obj": {"type": "AssignInt", "path": ["parameters", "secondsInWindow"], "value": 1}, "version": 23}
{"obj": {"type": "AssignInt", "path": ["parameters", "nperseg"], "value": 128}, "version": 24}
{"obj": {"type": "AssignInt", "path": ["parameters", "noverlap"], "value": 127}, "version": 25}
{"obj": {"type": "AssignString", "path": ["parameters", "window"], "value": "('tukey', 0.25)"}, "version": 26}
{"obj": {"type": "AssignString", "path": ["parameters", "loss_fn"], "value": "L1Loss()"}, "version": 27}
{"obj": {"type": "AssignString", "path": ["parameters", "architectureString"], "value": "NeuralNetwork(\n  (model): Sequential(\n    (l0): Linear(in_features=5655, out_features=512, bias=True)\n    (r0): ReLU()\n    (d0): Dropout(p=0.5, inplace=False)\n    (bn0): BatchNorm1d(5655, eps=1e-05, momentum=0.1, affine=True, track_running_stats=True)\n    (l1): Linear(in_features=512, out_features=512, bias=True)\n    (r1): ReLU()\n    (d1): Dropout(p=0.5, inplace=False)\n    (bn1): BatchNorm1d(512, eps=1e-05, momentum=0.1, affine=True, track_running_stats=True)\n    (l2): Linear(in_features=512, out_features=512, bias=True)\n    (r2): ReLU()\n    (d2): Dropout(p=0.5, inplace=False)\n    (bn2): BatchNorm1d(512, eps=1e-05, momentum=0.1, affine=True, track_running_stats=True)\n    (l3): Linear(in_features=512, out_features=512, bias=True)\n    (r3): ReLU()\n    (d3): Dropout(p=0.5, inplace=False)\n    (bn3): BatchNorm1d(512, eps=1e-05, momentum=0.1, affine=True, track_running_stats=True)\n    (l4): Linear(in_features=512, out_features=512, bias=True)\n    (r4): ReLU()\n    (d4): Dropout(p=0.5, inplace=False)\n    (bn4): BatchNorm1d(512, eps=1e-05, momentum=0.1, affine=True, track_running_stats=True)\n    (l5): Linear(in_features=512, out_features=1, bias=True)\n    (r5): ReLU()\n  )\n)"}, "version": 28}
{"obj": {"type": "AssignInt", "path": ["parameters", "numParameters"], "value": 3962415}, "version": 29}
{"obj": {"type": "LogFloats", "path": ["monitoring", "20e6f4cb", "cpu"], "values": [{"value": 0.1, "step": null, "ts": 1682097100.0671856}]}, "version": 30}
{"obj": {"type": "LogStrings", "path": ["monitoring", "20e6f4cb", "stdout"], "values": [{"value": "Epoch 1\n-------------------------------", "step": null, "ts": 1682097100.100163}]}, "version": 31}
…
{"obj": {"type": "LogStrings", "path": ["monitoring", "20e6f4cb", "stdout"], "values": [{"value": " ", "step": null, "ts": 1682097183.9593039}]}, "version": 53}
{"obj": {"type": "LogStrings", "path": ["monitoring", "20e6f4cb", "stdout"], "values": [{"value": "3963439", "step": null, "ts": 1682097183.9612598}]}, "version": 54}
{"obj": {"type": "LogStrings", "path": ["monitoring", "20e6f4cb", "stdout"], "values": [{"value": "\n", "step": null, "ts": 1682097183.9636343}]}, "version": 55}
{"obj": {"type": "LogStrings", "path": ["monitoring", "20e6f4cb", "stdout"], "values": [{"value": "NeuralNetwork(\n  (model): Sequential(\n    (bn0): BatchNorm1d(5655, eps=1e-05, momentum=0.1, affine=True, track_running_stats=True)\n    (l0): Linear(in_features=5655, out_features=512, bias=True)\n    (r0): ReLU()\n    (d0): Dropout(p=0.5, inplace=False)\n    (bn1): BatchNorm1d(512, eps=1e-05, momentum=0.1, affine=True, track_running_stats=True)\n    (l1): Linear(in_features=512, out_features=512, bias=True)\n    (r1): ReLU()\n    (d1): Dropout(p=0.5, inplace=False)\n    (bn2): BatchNorm1d(512, eps=1e-05, momentum=0.1, affine=True, track_running_stats=True)\n    (l2): Linear(in_features=512, out_features=512, bias=True)\n    (r2): ReLU()\n    (d2): Dropout(p=0.5, inplace=False)\n    (bn3): BatchNorm1d(512, eps=1e-05, momentum=0.1, affine=True, track_running_stats=True)\n    (l3): Linear(in_features=512, out_features=512, bias=True)\n    (r3): ReLU()\n    (d3): Dropout(p=0.5, inplace=False)\n    (bn4): BatchNorm1d(512, eps=1e-05, momentum=0.1, affine=True, track_running_stats=True)\n    (l4): Linear(in_", "step": null, "ts": 1682097183.9778767}]}, "version": 56}
{"obj": {"type": "LogStrings", "path": ["monitoring", "20e6f4cb", "stdout"], "values": [{"value": "\n", "step": null, "ts": 1682097183.9801278}]}, "version": 57}
{"obj": {"type": "LogStrings", "path": ["monitoring", "20e6f4cb", "stdout"], "values": [{"value": "Warning: string series 'monitoring/20e6f4cb/stdout' value was longer than 1000 characters and was truncated. This warning is printed only once per series.\n", "step": null, "ts": 1682097183.9819436}]}, "version": 58}
…
{"obj": {"type": "LogStrings", "path": ["monitoring", "20e6f4cb", "stdout"], "values": [{"value": " ", "step": null, "ts": 1682097231.0819044}]}, "version": 78}
{"obj": {"type": "LogStrings", "path": ["monitoring", "20e6f4cb", "stdout"], "values": [{"value": "3963439", "step": null, "ts": 1682097231.0859423}]}, "version": 79}
{"obj": {"type": "LogStrings", "path": ["monitoring", "20e6f4cb", "stdout"], "values": [{"value": "\n", "step": null, "ts": 1682097231.0885541}]}, "version": 80}
{"obj": {"type": "LogStrings", "path": ["monitoring", "20e6f4cb", "stdout"], "values": [{"value": "NeuralNetwork(\n  (model): Sequential(\n    (bn0): BatchNorm1d(5655, eps=1e-05, momentum=0.1, affine=True, track_running_stats=True)\n    (l0): Linear(in_features=5655, out_features=512, bias=True)\n    (r0): ReLU()\n    (d0): Dropout(p=0.5, inplace=False)\n    (bn1): BatchNorm1d(512, eps=1e-05, momentum=0.1, affine=True, track_running_stats=True)\n    (l1): Linear(in_features=512, out_features=512, bias=True)\n    (r1): ReLU()\n    (d1): Dropout(p=0.5, inplace=False)\n    (bn2): BatchNorm1d(512, eps=1e-05, momentum=0.1, affine=True, track_running_stats=True)\n    (l2): Linear(in_features=512, out_features=512, bias=True)\n    (r2): ReLU()\n    (d2): Dropout(p=0.5, inplace=False)\n    (bn3): BatchNorm1d(512, eps=1e-05, momentum=0.1, affine=True, track_running_stats=True)\n    (l3): Linear(in_features=512, out_features=512, bias=True)\n    (r3): ReLU()\n    (d3): Dropout(p=0.5, inplace=False)\n    (bn4): BatchNorm1d(512, eps=1e-05, momentum=0.1, affine=True, track_running_stats=True)\n    (l4): Linear(in_", "step": null, "ts": 1682097231.0999362}]}, "version": 81}
{"obj": {"type": "LogStrings", "path": ["monitoring", "20e6f4cb", "stdout"], "values": [{"value": "\n", "step": null, "ts": 1682097231.1026707}]}, "version": 82}
{"obj": {"type": "LogStrings", "path": ["monitoring", "20e6f4cb", "stdout"], "values": [{"value": "Warning: string series 'monitoring/20e6f4cb/stdout' value was longer than 1000 characters and was truncated. This warning is printed only once per series.\n", "step": null, "ts": 1682097231.1048946}]}, "version": 83}
…
{"obj": {"type": "LogStrings", "path": ["monitoring", "20e6f4cb", "stdout"], "values": [{"value": " ", "step": null, "ts": 1682099982.971561}]}, "version": 20317}
{"obj": {"type": "LogStrings", "path": ["monitoring", "20e6f4cb", "stdout"], "values": [{"value": "3951105", "step": null, "ts": 1682099982.973903}]}, "version": 20318}
{"obj": {"type": "LogStrings", "path": ["monitoring", "20e6f4cb", "stdout"], "values": [{"value": "\n", "step": null, "ts": 1682099982.9768565}]}, "version": 20319}
{"obj": {"type": "LogStrings", "path": ["monitoring", "20e6f4cb", "stdout"], "values": [{"value": "NeuralNetwork(\n  (model): Sequential(\n    (in): Linear(in_features=5655, out_features=512, bias=True)\n    (bn0): BatchNorm1d(512, eps=1e-05, momentum=0.1, affine=True, track_running_stats=True)\n    (l0): Linear(in_features=512, out_features=512, bias=True)\n    (r0): ReLU()\n    (d0): Dropout(p=0.5, inplace=False)\n    (bn1): BatchNorm1d(512, eps=1e-05, momentum=0.1, affine=True, track_running_stats=True)\n    (l1): Linear(in_features=512, out_features=512, bias=True)\n    (r1): ReLU()\n    (d1): Dropout(p=0.5, inplace=False)\n    (bn2): BatchNorm1d(512, eps=1e-05, momentum=0.1, affine=True, track_running_stats=True)\n    (l2): Linear(in_features=512, out_features=512, bias=True)\n    (r2): ReLU()\n    (d2): Dropout(p=0.5, inplace=False)\n    (bn3): BatchNorm1d(512, eps=1e-05, momentum=0.1, affine=True, track_running_stats=True)\n    (l3): Linear(in_features=512, out_features=512, bias=True)\n    (out): Linear(in_features=512, out_features=1, bias=True)\n  )\n)", "step": null, "ts": 1682099982.9876564}]}, "version": 20320}
{"obj": {"type": "LogStrings", "path": ["monitoring", "20e6f4cb", "stdout"], "values": [{"value": "\n", "step": null, "ts": 1682099982.99101}]}, "version": 20321}
{"obj": {"type": "LogFloats", "path": ["monitoring", "20e6f4cb", "memory"], "values": [{"value": 23.92790985107422, "step": null, "ts": 1682099986.088227}]}, "version": 20322}
…
