…
{"obj": {"type": "AssignInt", "path": ["parameters", "secondsInWindow"], "value": 1}, "version": 23}
{"obj": {"type": "AssignInt", "path": ["parameters", "nperseg"], "value": 128}, "version": 24}
{"obj": {"type": "AssignInt", "path": ["parameters", "noverlap"], "value": 127}, "version": 25}
{"obj": {"type": "AssignString", "path": ["parameters", "window"], "value": "('tukey', 0.25)"}, "version": 26}
{"obj": {"type": "AssignString", "path": ["parameters", "loss_fn"], "value": "L1Loss()"}, "version": 27}
{"obj": {"type": "AssignString", "path": ["parameters", "architectureString"], "value": "NeuralNetwork(\n  (model): Sequential(\n    (bn0): BatchNorm1d(5655, eps=1e-05, momentum=0.1, affine=True, track_running_stats=True)\n    (l0): Linear(in_features=5655, out_features=512, bias=True)\n    (r0): ReLU()\n    (d0): Dropout(p=0.5, inplace=False)\n    (bn1): BatchNorm1d(512, eps=1e-05, momentum=0.1, affine=True, track_running_stats=True)\n    (l1): Linear(in_features=512, out_features=512, bias=True)\n    (r1): ReLU()\n    (d1): Dropout(p=0.5, inplace=False)\n    (bn2): BatchNorm1d(512, eps=1e-05, momentum=0.1, affine=True, track_running_stats=True)\n    (l2): Linear(in_features=512, out_features=512, bias=True)\n    (r2): ReLU()\n    (d2): Dropout(p=0.5, inplace=False)\n    (bn3): BatchNorm1d(512, eps=1e-05, momentum=0.1, affine=True, track_running_stats=True)\n    (l3): Linear(in_features=512, out_features=512, bias=True)\n    (r3): ReLU()\n    (d3): Dropout(p=0.5, inplace=False)\n    (bn4): BatchNorm1d(512, eps=1e-05, momentum=0.1, affine=True, track_running_stats=True)\n    (l4): Linear(in_features=512, out_features=512, bias=True)\n    (r4): ReLU()\n    (d4): Dropout(p=0.5, inplace=False)\n    (bn5): BatchNorm1d(512, eps=1e-05, momentum=0.1, affine=True, track_running_stats=True)\n    (l5): Linear(in_features=512, out_features=1, bias=True)\n  )\n)"}, "version": 28}
{"obj": {"type": "AssignInt", "path": ["parameters", "numParameters"], "value": 3963439}, "version": 29}
{"obj": {"type": "LogFloats", "path": ["monitoring", "20e6f4cb", "cpu"], "values": [{"value": 0.1, "step": null, "ts": 1682097189.341418}]}, "version": 30}
{"obj": {"type": "LogStrings", "path": ["monitoring", "20e6f4cb", "stdout"], "values": [{"value": "Epoch 1\n-------------------------------", "step": null, "ts": 1682097189.3766727}]}, "version": 31}
…
{"obj": {"type": "LogStrings", "path": ["monitoring", "20e6f4cb", "stdout"], "values": [{"value": " ", "step": null, "ts": 1682097231.0820806}]}, "version": 46}
{"obj": {"type": "LogStrings", "path": ["monitoring", "20e6f4cb", "stdout"], "values": [{"value": "3963439", "step": null, "ts": 1682097231.0848355}]}, "version": 47}
{"obj": {"type": "LogStrings", "path": ["monitoring", "20e6f4cb", "stdout"], "values": [{"value": "\n", "step": null, "ts": 1682097231.0873225}]}, "version": 48}
{"obj": {"type": "LogStrings", "path": ["monitoring", "20e6f4cb", "stdout"], "values": [{"value": "NeuralNetwork(\n  (model): Sequential(\n    (bn0): BatchNorm1d(5655, eps=1e-05, momentum=0.1, affine=True, track_running_stats=True)\n    (l0): Linear(in_features=5655, out_features=512, bias=True)\n    (r0): ReLU()\n    (d0): Dropout(p=0.5, inplace=False)\n    (bn1): BatchNorm1d(512, eps=1e-05, momentum=0.1, affine=True, track_running_stats=True)\n    (l1): Linear(in_features=512, out_features=512, bias=True)\n    (r1): ReLU()\n    (d1): Dropout(p=0.5, inplace=False)\n    (bn2): BatchNorm1d(512, eps=1e-05, momentum=0.1, affine=True, track_running_stats=True)\n    (l2): Linear(in_features=512, out_features=512, bias=True)\n    (r2): ReLU()\n    (d2): Dropout(p=0.5, inplace=False)\n    (bn3): BatchNorm1d(512, eps=1e-05, momentum=0.1, affine=True, track_running_stats=True)\n    (l3): Linear(in_features=512, out_features=512, bias=True)\n    (r3): ReLU()\n    (d3): Dropout(p=0.5, inplace=False)\n    (bn4): BatchNorm1d(512, eps=1e-05, momentum=0.1, affine=True, track_running_stats=True)\n    (l4): Linear(in_", "step": null, "ts": 1682097231.0996344}]}, "version": 49}
{"obj": {"type": "LogStrings", "path": ["monitoring", "20e6f4cb", "stdout"], "values": [{"value": "\n", "step": null, "ts": 1682097231.1028104}]}, "version": 50}
{"obj": {"type": "LogStrings", "path": ["monitoring", "20e6f4cb", "stdout"], "values": [{"value": "Warning: string series 'monitoring/20e6f4cb/stdout' value was longer than 1000 characters and was truncated. This warning is printed only once per series.\n", "step": null, "ts": 1682097231.1052349}]}, "version": 51}
…
{"obj": {"type": "LogStrings", "path": ["monitoring", "20e6f4cb", "stdout"], "values": [{"value": " ", "step": null, "ts": 1682099982.9714513}]}, "version": 20288}
{"obj": {"type": "LogStrings", "path": ["monitoring", "20e6f4cb", "stdout"], "values": [{"value": "3951105", "step": null, "ts": 1682099982.9741704}]}, "version": 20289}
{"obj": {"type": "LogStrings", "path": ["monitoring", "20e6f4cb", "stdout"], "values": [{"value": "\n", "step": null, "ts": 1682099982.9766357}]}, "version": 20290}
{"obj": {"type": "LogStrings", "path": ["monitoring", "20e6f4cb", "stdout"], "values": [{"value": "NeuralNetwork(\n  (model): Sequential(\n    (in): Linear(in_features=5655, out_features=512, bias=True)\n    (bn0): BatchNorm1d(512, eps=1e-05, momentum=0.1, affine=True, track_running_stats=True)\n    (l0): Linear(in_features=512, out_features=512, bias=True)\n    (r0): ReLU()\n    (d0): Dropout(p=0.5, inplace=False)\n    (bn1): BatchNorm1d(512, eps=1e-05, momentum=0.1, affine=True, track_running_stats=True)\n    (l1): Linear(in_features=512, out_features=512, bias=True)\n    (r1): ReLU()\n    (d1): Dropout(p=0.5, inplace=False)\n    (bn2): BatchNorm1d(512, eps=1e-05, momentum=0.1, affine=True, track_running_stats=True)\n    (l2): Linear(in_features=512, out_features=512, bias=True)\n    (r2): ReLU()\n    (d2): Dropout(p=0.5, inplace=False)\n    (bn3): BatchNorm1d(512, eps=1e-05, momentum=0.1, affine=True, track_running_stats=True)\n    (l3): Linear(in_features=512, out_features=512, bias=True)\n    (out): Linear(in_features=512, out_features=1, bias=True)\n  )\n)", "step": null, "ts": 1682099982.9880073}]}, "version": 20291}
{"obj": {"type": "LogStrings", "path": ["monitoring", "20e6f4cb", "stdout"], "values": [{"value": "\n", "step": null, "ts": 1682099982.9907}]}, "version": 20292}
{"obj": {"type": "LogFloats", "path": ["monitoring", "20e6f4cb", "cpu"], "values": [{"value": 0.1, "step": null, "ts": 1682099985.760911}]}, "version": 20293}
…
