…
{"obj": {"type": "AssignInt", "path": ["parameters", "secondsInWindow"], "value": 1}, "version": 23}
{"obj": {"type": "AssignInt", "path": ["parameters", "nperseg"], "value": 128}, "version": 24}
{"obj": {"type": "AssignInt", "path": ["parameters", "noverlap"], "value": 127}, "version": 25}
{"obj": {"type": "AssignString", "path": ["parameters", "window"], "value": "('tukey', 0.25)"}, "version": 26}
{"obj": {"type": "AssignString", "path": ["parameters", "loss_fn"], "value": "L1Loss()"}, "version": 27}
{"obj": {"type": "AssignString", "path": ["parameters", "architectureString"], "value": "NeuralNetwork(\n  (model): Sequential(\n    (l0): Linear(in_features=5655, out_features=512, bias=True)\n    (r0): ReLU()\n    (d0): Dropout(p=0.5, inplace=False)\n    (bn0): BatchNorm1d(5655, eps=1e-05, momentum=0.1, affine=True, track_running_stats=True)\n    (l1): Linear(in_features=512, out_features=512, bias=True)\n    (r1): ReLU()\n    (d1): Dropout(p=0.5, inplace=False)\n    (bn1): BatchNorm1d(512, eps=1e-05, momentum=0.1, affine=True, track_running_stats=True)\n    (l2): Linear(in_features=512, out_features=512, bias=True)\n    (r2): ReLU()\n    (d2): Dropout(p=0.5, inplace=False)\n    (bn2): BatchNorm1d(512, eps=1e-05, momentum=0.1, affine=True, track_running_stats=True)\n    (l3): Linear(in_features=512, out_features=512, bias=True)\n    (r3): ReLU()\n    (d3): Dropout(p=0.5, inplace=False)\n    (bn3): BatchNorm1d(512, eps=1e-05, momentum=0.1, affine=True, track_running_stats=True)\n    (l4): Linear(in_features=512, out_features=512, bias=True)\n    (r4): ReLU()\n    (d4): Dropout(p=0.5, inplace=False)\n    (bn4): BatchNorm1d(512, eps=1e-05, momentum=0.1, affine=True, track_running_stats=True)\n    (l5): Linear(in_features=512, out_features=1, bias=True)\n    (r5): ReLU()\n  )\n)"}, "version": 28}
{"obj": {"type": "AssignInt", "path": ["parameters", "numParameters"], "value": 3962415}, "version": 29}
{"obj": {"type": "LogFloats", "path": ["monitoring", "20e6f4cb", "memory"], "values": [{"value": 23.85739517211914, "step": null, "ts": 1682097087.1526637}]}, "version": 30}
{"obj": {"type": "LogStrings", "path": ["monitoring", "20e6f4cb", "stdout"], "values": [{"value": "Epoch 1\n-------------------------------", "step": null, "ts": 1682097087.2040951}]}, "version": 31}
…
{"obj": {"type": "LogStrings", "path": ["monitoring", "20e6f4cb", "stdout"], "values": [{"value": " ", "step": null, "ts": 1682097094.2828848}]}, "version": 35}
{"obj": {"type": "LogStrings", "path": ["monitoring", "20e6f4cb", "stdout"], "values": [{"value": "3962415", "step": null, "ts": 1682097094.2848396}]}, "version": 36}
{"obj": {"type": "LogStrings", "path": ["monitoring", "20e6f4cb", "stdout"], "values": [{"value": "\n", "step": null, "ts": 1682097094.2869363}]}, "version": 37}
{"obj": {"type": "LogStrings", "path": ["monitoring", "20e6f4cb", "stdout"], "values": [{"value": "NeuralNetwork(\n  (model): Sequential(\n    (l0): Linear(in_features=5655, out_features=512, bias=True)\n    (r0): ReLU()\n    (d0): Dropout(p=0.5, inplace=False)\n    (bn0): BatchNorm1d(5655, eps=1e-05, momentum=0.1, affine=True, track_running_stats=True)\n    (l1): Linear(in_features=512, out_features=512, bias=True)\n    (r1): ReLU()\n    (d1): Dropout(p=0.5, inplace=False)\n    (bn1): BatchNorm1d(512, eps=1e-05, momentum=0.1, affine=True, track_running_stats=True)\n    (l2): Linear(in_features=512, out_features=512, bias=True)\n    (r2): ReLU()\n    (d2): Dropout(p=0.5, inplace=False)\n    (bn2): BatchNorm1d(512, eps=1e-05, momentum=0.1, affine=True, track_running_stats=True)\n    (l3): Linear(in_features=512, out_features=512, bias=True)\n    (r3): ReLU()\n    (d3): Dropout(p=0.5, inplace=False)\n    (bn3): BatchNorm1d(512, eps=1e-05, momentum=0.1, affine=True, track_running_stats=True)\n    (l4): Linear(in_features=512, out_features=512, bias=True)\n    (r4): ReLU()\n    (d4): Dropout(p=0.5, inplace", "step": null, "ts": 1682097094.3015137}]}, "version": 38}
{"obj": {"type": "LogStrings", "path": ["monitoring", "20e6f4cb", "stdout"], "values": [{"value": "\n", "step": null, "ts": 1682097094.304106}]}, "version": 39}
{"obj": {"type": "LogStrings", "path": ["monitoring", "20e6f4cb", "stdout"], "values": [{"value": "Warning: string series 'monitoring/20e6f4cb/stdout' value was longer than 1000 characters and was truncated. This warning is printed only once per series.\n", "step": null, "ts": 1682097094.3063576}]}, "version": 40}
…
{"obj": {"type": "LogStrings", "path": ["monitoring", "20e6f4cb", "stdout"], "values": [{"value": " ", "step": null, "ts": 1682097183.9595165}]}, "version": 66}
{"obj": {"type": "LogStrings", "path": ["monitoring", "20e6f4cb", "stdout"], "values": [{"value": "3963439", "step": null, "ts": 1682097183.961628}]}, "version": 67}
{"obj": {"type": "LogStrings", "path": ["monitoring", "20e6f4cb", "stdout"], "values": [{"value": "\n", "step": null, "ts": 1682097183.9637299}]}, "version": 68}
{"obj": {"type": "LogStrings", "path": ["monitoring", "20e6f4cb", "stdout"], "values": [{"value": "NeuralNetwork(\n  (model): Sequential(\n    (bn0): BatchNorm1d(5655, eps=1e-05, momentum=0.1, affine=True, track_running_stats=True)\n    (l0): Linear(in_features=5655, out_features=512, bias=True)\n    (r0): ReLU()\n    (d0): Dropout(p=0.5, inplace=False)\n    (bn1): BatchNorm1d(512, eps=1e-05, momentum=0.1, affine=True, track_running_stats=True)\n    (l1): Linear(in_features=512, out_features=512, bias=True)\n    (r1): ReLU()\n    (d1): Dropout(p=0.5, inplace=False)\n    (bn2): BatchNorm1d(512, eps=1e-05, momentum=0.1, affine=True, track_running_stats=True)\n    (l2): Linear(in_features=512, out_features=512, bias=True)\n    (r2): ReLU()\n    (d2): Dropout(p=0.5, inplace=False)\n    (bn3): BatchNorm1d(512, eps=1e-05, momentum=0.1, affine=True, track_running_stats=True)\n    (l3): Linear(in_features=512, out_features=512, bias=True)\n    (r3): ReLU()\n    (d3): Dropout(p=0.5, inplace=False)\n    (bn4): BatchNorm1d(512, eps=1e-05, momentum=0.1, affine=True, track_running_stats=True)\n    (l4): Linear(in_", "step": null, "ts": 1682097183.9768665}]}, "version": 69}
{"obj": {"type": "LogStrings", "path": ["monitoring", "20e6f4cb", "stdout"], "values": [{"value": "\n", "step": null, "ts": 1682097183.9815302}]}, "version": 70}
{"obj": {"type": "LogStrings", "path": ["monitoring", "20e6f4cb", "stdout"], "values": [{"value": "Warning: string series 'monitoring/20e6f4cb/stdout' value was longer than 1000 characters and was truncated. This warning is printed only once per series.\n", "step": null, "ts": 1682097183.9837713}]}, "version": 71}
…
{"obj": {"type": "LogStrings", "path": ["monitoring", "20e6f4cb", "stdout"], "values": [{"value": " ", "step": null, "ts": 1682097231.0821953}]}, "version": 90}
{"obj": {"type": "LogStrings", "path": ["monitoring", "20e6f4cb", "stdout"], "values": [{"value": "3963439", "step": null, "ts": 1682097231.084724}]}, "version": 91}
{"obj": {"type": "LogStrings", "path": ["monitoring", "20e6f4cb", "stdout"], "values": [{"value": "\n", "step": null, "ts": 1682097231.0871747}]}, "version": 92}
{"obj": {"type": "LogStrings", "path": ["monitoring", "20e6f4cb", "stdout"], "values": [{"value": "NeuralNetwork(\n  (model): Sequential(\n    (bn0): BatchNorm1d(5655, eps=1e-05, momentum=0.1, affine=True, track_running_stats=True)\n    (l0): Linear(in_features=5655, out_features=512, bias=True)\n    (r0): ReLU()\n    (d0): Dropout(p=0.5, inplace=False)\n    (bn1): BatchNorm1d(512, eps=1e-05, momentum=0.1, affine=True, track_running_stats=True)\n    (l1): Linear(in_features=512, out_features=512, bias=True)\n    (r1): ReLU()\n    (d1): Dropout(p=0.5, inplace=False)\n    (bn2): BatchNorm1d(512, eps=1e-05, momentum=0.1, affine=True, track_running_stats=True)\n    (l2): Linear(in_features=512, out_features=512, bias=True)\n    (r2): ReLU()\n    (d2): Dropout(p=0.5, inplace=False)\n    (bn3): BatchNorm1d(512, eps=1e-05, momentum=0.1, affine=True, track_running_stats=True)\n    (l3): Linear(in_features=512, out_features=512, bias=True)\n    (r3): ReLU()\n    (d3): Dropout(p=0.5, inplace=False)\n    (bn4): BatchNorm1d(512, eps=1e-05, momentum=0.1, affine=True, track_running_stats=True)\n    (l4): Linear(in_", "step": null, "ts": 1682097231.0991461}]}, "version": 93}
{"obj": {"type": "LogStrings", "path": ["monitoring", "20e6f4cb", "stdout"], "values": [{"value": "\n", "step": null, "ts": 1682097231.1018522}]}, "version": 94}
{"obj": {"type": "LogStrings", "path": ["monitoring", "20e6f4cb", "stdout"], "values": [{"value": "Warning: string series 'monitoring/20e6f4cb/stdout' value was longer than 1000 characters and was truncated. This warning is printed only once per series.\n", "step": null, "ts": 1682097231.1045294}]}, "version": 95}
…
{"obj": {"type": "LogStrings", "path": ["monitoring", "20e6f4cb", "stdout"], "values": [{"value": " ", "step": null, "ts": 1682099982.9710903}]}, "version": 20337}
{"obj": {"type": "LogStrings", "path": ["monitoring", "20e6f4cb", "stdout"], "values": [{"value": "3951105", "step": null, "ts": 1682099982.9736235}]}, "version": 20338}
{"obj": {"type": "LogStrings", "path": ["monitoring", "20e6f4cb", "stdout"], "values": [{"value": "\n", "step": null, "ts": 1682099982.975634}]}, "version": 20339}
{"obj": {"type": "LogStrings", "path": ["monitoring", "20e6f4cb", "stdout"], "values": [{"value": "NeuralNetwork(\n  (model): Sequential(\n    (in): Linear(in_features=5655, out_features=512, bias=True)\n    (bn0): BatchNorm1d(512, eps=1e-05, momentum=0.1, affine=True, track_running_stats=True)\n    (l0): Linear(in_features=512, out_features=512, bias=True)\n    (r0): ReLU()\n    (d0): Dropout(p=0.5, inplace=False)\n    (bn1): BatchNorm1d(512, eps=1e-05, momentum=0.1, affine=True, track_running_stats=True)\n    (l1): Linear(in_features=512, out_features=512, bias=True)\n    (r1): ReLU()\n    (d1): Dropout(p=0.5, inplace=False)\n    (bn2): BatchNorm1d(512, eps=1e-05, momentum=0.1, affine=True, track_running_stats=True)\n    (l2): Linear(in_features=512, out_features=512, bias=True)\n    (r2): ReLU()\n    (d2): Dropout(p=0.5, inplace=False)\n    (bn3): BatchNorm1d(512, eps=1e-05, momentum=0.1, affine=True, track_running_stats=True)\n    (l3): Linear(in_features=512, out_features=512, bias=True)\n    (out): Linear(in_features=512, out_features=1, bias=True)\n  )\n)", "step": null, "ts": 1682099982.9874954}]}, "version": 20340}
{"obj": {"type": "LogStrings", "path": ["monitoring", "20e6f4cb", "stdout"], "values": [{"value": "\n", "step": null, "ts": 1682099982.9905646}]}, "version": 20341}
{"obj": {"type": "LogFloats", "path": ["monitoring", "20e6f4cb", "cpu"], "values": [{"value": 0.1, "step": null, "ts": 1682099983.5115206}]}, "version": 20342}
…
