…
{"obj": {"type": "AssignInt", "path": ["parameters", "secondsInWindow"], "value": 1}, "version": 23}
{"obj": {"type": "AssignInt", "path": ["parameters", "nperseg"], "value": 128}, "version": 24}
{"obj": {"type": "AssignInt", "path": ["parameters", "noverlap"], "value": 127}, "version": 25}
{"obj": {"type": "AssignString", "path": ["parameters", "window"], "value": "('tukey', 0.25)"}, "version": 26}
{"obj": {"type": "AssignString", "path": ["parameters", "loss_fn"], "value": "L1Loss()"}, "version": 27}
{"obj": {"type": "AssignString", "path": ["parameters", "architectureString"], "value": "NeuralNetwork(\n  (model): Sequential(\n    (in): Linear(in_features=5655, out_features=512, bias=True)\n    (bn0): BatchNorm1d(512, eps=1e-05, momentum=0.1, affine=True, track_running_stats=True)\n    (l0): Linear(in_features=512, out_features=512, bias=True)\n    (r0): ReLU()\n    (d0): Dropout(p=0.5, inplace=False)\n    (bn1): BatchNorm1d(512, eps=1e-05, momentum=0.1, affine=True, track_running_stats=True)\n    (l1): Linear(in_features=512, out_features=512, bias=True)\n    (r1): ReLU()\n    (d1): Dropout(p=0.5, inplace=False)\n    (bn2): BatchNorm1d(512, eps=1e-05, momentum=0.1, affine=True, track_running_stats=True)\n    (l2): Linear(in_features=512, out_features=512, bias=True)\n    (r2): ReLU()\n    (d2): Dropout(p=0.5, inplace=False)\n    (bn3): BatchNorm1d(512, eps=1e-05, momentum=0.1, affine=True, track_running_stats=True)\n    (l3): Linear(in_features=512, out_features=512, bias=True)\n    (out): Linear(in_features=512, out_features=1, bias=True)\n  )\n)"}, "version": 28}
{"obj": {"type": "AssignInt", "path": ["parameters", "numParameters"], "value": 3951105}, "version": 29}
{"obj": {"type": "LogFloats", "path": ["monitoring", "20e6f4cb", "cpu"], "values": [{"value": 0.2, "step": null, "ts": 1682099996.652229}]}, "version": 30}
{"obj": {"type": "LogStrings", "path": ["monitoring", "20e6f4cb", "stdout"], "values": [{"value": "Epoch 1\n-------------------------------", "step": null, "ts": 1682099996.6848726}]}, "version": 31}
…
