…
{"obj": {"type": "AssignInt", "path": ["parameters", "secondsInWindow"], "value": 1}, "version": 23}
{"obj": {"type": "AssignInt", "path": ["parameters", "nperseg"], "value": 128}, "version": 24}
{"obj": {"type": "AssignInt", "path": ["parameters", "noverlap"], "value": 127}, "version": 25}
{"obj": {"type": "AssignString", "path": ["parameters", "window"], "value": "('tukey', 0.25)"}, "version": 26}
{"obj": {"type": "AssignString", "path": ["parameters", "loss_fn"], "value": "L1Loss()"}, "version": 27}
{"obj": {"type": "AssignString", "path": ["parameters", "architectureString"], "value": "NeuralNetwork(\n  (model): Sequential(\n    (l0): Linear(in_features=5655, out_features=512, bias=True)\n    (r0): ReLU()\n    (d0): Dropout(p=0.5, inplace=False)\n    (bn0): BatchNorm1d(5655, eps=1e-05, momentum=0.1, affine=True, track_running_stats=True)\n    (l1): Linear(in_features=512, out_features=512, bias=True)\n    (r1): ReLU()\n    (d1): Dropout(p=0.5, inplace=False)\n    (bn1): BatchNorm1d(512, eps=1e-05, momentum=0.1, affine=True, track_running_stats=True)\n    (l2): Linear(in_features=512, out_features=512, bias=True)\n    (r2): ReLU()\n    (d2): Dropout(p=0.5, inplace=False)\n    (bn2): BatchNorm1d(512, eps=1e-05, momentum=0.1, affine=True, track_running_stats=True)\n    (l3): Linear(in_features=512, out_features=512, bias=True)\n    (r3): ReLU()\n    (d3): Dropout(p=0.5, inplace=False)\n    (bn3): BatchNorm1d(512, eps=1e-05, momentum=0.1, affine=True, track_running_stats=True)\n    (l4): Linear(in_features=512, out_features=512, bias=True)\n    (r4): ReLU()\n    (d4): Dropout(p=0.5, inplace=False)\n    (bn4): BatchNorm1d(512, eps=1e-05, momentum=0.1, affine=True, track_running_stats=True)\n    (l5): Linear(in_features=512, out_features=1, bias=True)\n    (r5): ReLU()\n  )\n)"}, "version": 28}
{"obj": {"type": "AssignInt", "path": ["parameters", "numParameters"], "value": 3962415}, "version": 29}
{"obj": {"type": "LogFloats", "path": ["monitoring", "20e6f4cb", "cpu"], "values": [{"value": 0.2, "step": null, "ts": 1682096941.6688528}]}, "version": 30}
{"obj": {"type": "LogFloats", "path": ["monitoring", "20e6f4cb", "memory"], "values": [{"value": 23.845260620117188, "step": null, "ts": 1682096941.6688528}]}, "version": 31}
…
{"obj": {"type": "LogStrings", "path": ["monitoring", "20e6f4cb", "stdout"], "values": [{"value": " ", "step": null, "ts": 1682097094.282693}]}, "version": 73}
{"obj": {"type": "LogStrings", "path": ["monitoring", "20e6f4cb", "stdout"], "values": [{"value": "3962415", "step": null, "ts": 1682097094.284588}]}, "version": 74}
{"obj": {"type": "LogStrings", "path": ["monitoring", "20e6f4cb", "stdout"], "values": [{"value": "\n", "step": null, "ts": 1682097094.2863936}]}, "version": 75}
{"obj": {"type": "LogStrings", "path": ["monitoring", "20e6f4cb", "stdout"], "values": [{"value": "NeuralNetwork(\n  (model): Sequential(\n    (l0): Linear(in_features=5655, out_features=512, bias=True)\n    (r0): ReLU()\n    (d0): Dropout(p=0.5, inplace=False)\n    (bn0): BatchNorm1d(5655, eps=1e-05, momentum=0.1, affine=True, track_running_stats=True)\n    (l1): Linear(in_features=512, out_features=512, bias=True)\n    (r1): ReLU()\n    (d1): Dropout(p=0.5, inplace=False)\n    (bn1): BatchNorm1d(512, eps=1e-05, momentum=0.1, affine=True, track_running_stats=True)\n    (l2): Linear(in_features=512, out_features=512, bias=True)\n    (r2): ReLU()\n    (d2): Dropout(p=0.5, inplace=False)\n    (bn2): BatchNorm1d(512, eps=1e-05, momentum=0.1, affine=True, track_running_stats=True)\n    (l3): Linear(in_features=512, out_features=512, bias=True)\n    (r3): ReLU()\n    (d3): Dropout(p=0.5, inplace=False)\n    (bn3): BatchNorm1d(512, eps=1e-05, momentum=0.1, affine=True, track_running_stats=True)\n    (l4): Linear(in_features=512, out_features=512, bias=True)\n    (r4): ReLU()\n    (d4): Dropout(p=0.5, inplace", "step": null, "ts": 1682097094.3010294}]}, "version": 76}
{"obj": {"type": "LogStrings", "path": ["monitoring", "20e6f4cb", "stdout"], "values": [{"value": "\n", "step": null, "ts": 1682097094.3040068}]}, "version": 77}
{"obj": {"type": "LogStrings", "path": ["monitoring", "20e6f4cb", "stdout"], "values": [{"value": "Warning: string series 'monitoring/20e6f4cb/stdout' value was longer than 1000 characters and was truncated. This warning is printed only once per series.\n", "step": null, "ts": 1682097094.306027}]}, "version": 78}
…
{"obj": {"type": "LogStrings", "path": ["monitoring", "20e6f4cb", "stdout"], "values": [{"value": " ", "step": null, "ts": 1682097183.9590783}]}, "version": 109}
{"obj": {"type": "LogStrings", "path": ["monitoring", "20e6f4cb", "stdout"], "values": [{"value": "3963439", "step": null, "ts": 1682097183.9609299}]}, "version": 110}
{"obj": {"type": "LogStrings", "path": ["monitoring", "20e6f4cb", "stdout"], "values": [{"value": "\n", "step": null, "ts": 1682097183.962713}]}, "version": 111}
{"obj": {"type": "LogStrings", "path": ["monitoring", "20e6f4cb", "stdout"], "values": [{"value": "NeuralNetwork(\n  (model): Sequential(\n    (bn0): BatchNorm1d(5655, eps=1e-05, momentum=0.1, affine=True, track_running_stats=True)\n    (l0): Linear(in_features=5655, out_features=512, bias=True)\n    (r0): ReLU()\n    (d0): Dropout(p=0.5, inplace=False)\n    (bn1): BatchNorm1d(512, eps=1e-05, momentum=0.1, affine=True, track_running_stats=True)\n    (l1): Linear(in_features=512, out_features=512, bias=True)\n    (r1): ReLU()\n    (d1): Dropout(p=0.5, inplace=False)\n    (bn2): BatchNorm1d(512, eps=1e-05, momentum=0.1, affine=True, track_running_stats=True)\n    (l2): Linear(in_features=512, out_features=512, bias=True)\n    (r2): ReLU()\n    (d2): Dropout(p=0.5, inplace=False)\n    (bn3): BatchNorm1d(512, eps=1e-05, momentum=0.1, affine=True, track_running_stats=True)\n    (l3): Linear(in_features=512, out_features=512, bias=True)\n    (r3): ReLU()\n    (d3): Dropout(p=0.5, inplace=False)\n    (bn4): BatchNorm1d(512, eps=1e-05, momentum=0.1, affine=True, track_running_stats=True)\n    (l4): Linear(in_", "step": null, "ts": 1682097183.976719}]}, "version": 112}
{"obj": {"type": "LogStrings", "path": ["monitoring", "20e6f4cb", "stdout"], "values": [{"value": "\n", "step": null, "ts": 1682097183.9795082}]}, "version": 113}
{"obj": {"type": "LogStrings", "path": ["monitoring", "20e6f4cb", "stdout"], "values": [{"value": "Warning: string series 'monitoring/20e6f4cb/stdout' value was longer than 1000 characters and was truncated. This warning is printed only once per series.\n", "step": null, "ts": 1682097183.9814155}]}, "version": 114}
…
{"obj": {"type": "LogStrings", "path": ["monitoring", "20e6f4cb", "stdout"], "values": [{"value": " ", "step": null, "ts": 1682097231.0817485}]}, "version": 133}
{"obj": {"type": "LogStrings", "path": ["monitoring", "20e6f4cb", "stdout"], "values": [{"value": "3963439", "step": null, "ts": 1682097231.085584}]}, "version": 134}
{"obj": {"type": "LogStrings", "path": ["monitoring", "20e6f4cb", "stdout"], "values": [{"value": "\n", "step": null, "ts": 1682097231.0875485}]}, "version": 135}
{"obj": {"type": "LogStrings", "path": ["monitoring", "20e6f4cb", "stdout"], "values": [{"value": "NeuralNetwork(\n  (model): Sequential(\n    (bn0): BatchNorm1d(5655, eps=1e-05, momentum=0.1, affine=True, track_running_stats=True)\n    (l0): Linear(in_features=5655, out_features=512, bias=True)\n    (r0): ReLU()\n    (d0): Dropout(p=0.5, inplace=False)\n    (bn1): BatchNorm1d(512, eps=1e-05, momentum=0.1, affine=True, track_running_stats=True)\n    (l1): Linear(in_features=512, out_features=512, bias=True)\n    (r1): ReLU()\n    (d1): Dropout(p=0.5, inplace=False)\n    (bn2): BatchNorm1d(512, eps=1e-05, momentum=0.1, affine=True, track_running_stats=True)\n    (l2): Linear(in_features=512, out_features=512, bias=True)\n    (r2): ReLU()\n    (d2): Dropout(p=0.5, inplace=False)\n    (bn3): BatchNorm1d(512, eps=1e-05, momentum=0.1, affine=True, track_running_stats=True)\n    (l3): Linear(in_features=512, out_features=512, bias=True)\n    (r3): ReLU()\n    (d3): Dropout(p=0.5, inplace=False)\n    (bn4): BatchNorm1d(512, eps=1e-05, momentum=0.1, affine=True, track_running_stats=True)\n    (l4): Linear(in_", "step": null, "ts": 1682097231.0987492}]}, "version": 136}
{"obj": {"type": "LogStrings", "path": ["monitoring", "20e6f4cb", "stdout"], "values": [{"value": "\n", "step": null, "ts": 1682097231.1012995}]}, "version": 137}
{"obj": {"type": "LogStrings", "path": ["monitoring", "20e6f4cb", "stdout"], "values": [{"value": "Warning: string series 'monitoring/20e6f4cb/stdout' value was longer than 1000 characters and was truncated. This warning is printed only once per series.\n", "step": null, "ts": 1682097231.103631}]}, "version": 138}
…
{"obj": {"type": "LogStrings", "path": ["monitoring", "20e6f4cb", "stdout"], "values": [{"value": " ", "step": null, "ts": 1682099982.9709768}]}, "version": 20386}
{"obj": {"type": "LogStrings", "path": ["monitoring", "20e6f4cb", "stdout"], "values": [{"value": "3951105", "step": null, "ts": 1682099982.973286}]}, "version": 20387}
{"obj": {"type": "LogStrings", "path": ["monitoring", "20e6f4cb", "stdout"], "values": [{"value": "\n", "step": null, "ts": 1682099982.9752674}]}, "version": 20388}
{"obj": {"type": "LogStrings", "path": ["monitoring", "20e6f4cb", "stdout"], "values": [{"value": "NeuralNetwork(\n  (model): Sequential(\n    (in): Linear(in_features=5655, out_features=512, bias=True)\n    (bn0): BatchNorm1d(512, eps=1e-05, momentum=0.1, affine=True, track_running_stats=True)\n    (l0): Linear(in_features=512, out_features=512, bias=True)\n    (r0): ReLU()\n    (d0): Dropout(p=0.5, inplace=False)\n    (bn1): BatchNorm1d(512, eps=1e-05, momentum=0.1, affine=True, track_running_stats=True)\n    (l1): Linear(in_features=512, out_features=512, bias=True)\n    (r1): ReLU()\n    (d1): Dropout(p=0.5, inplace=False)\n    (bn2): BatchNorm1d(512, eps=1e-05, momentum=0.1, affine=True, track_running_stats=True)\n    (l2): Linear(in_features=512, out_features=512, bias=True)\n    (r2): ReLU()\n    (d2): Dropout(p=0.5, inplace=False)\n    (bn3): BatchNorm1d(512, eps=1e-05, momentum=0.1, affine=True, track_running_stats=True)\n    (l3): Linear(in_features=512, out_features=512, bias=True)\n    (out): Linear(in_features=512, out_features=1, bias=True)\n  )\n)", "step": null, "ts": 1682099982.9873838}]}, "version": 20389}
{"obj": {"type": "LogStrings", "path": ["monitoring", "20e6f4cb", "stdout"], "values": [{"value": "\n", "step": null, "ts": 1682099982.9902375}]}, "version": 20390}
{"obj": {"type": "LogFloats", "path": ["monitoring", "20e6f4cb", "cpu"], "values": [{"value": 0.1, "step": null, "ts": 1682099987.17591}]}, "version": 20391}
…
