…
{"obj": {"type": "AssignInt", "path": ["parameters", "secondsInWindow"], "value": 1}, "version": 23}
{"obj": {"type": "AssignInt", "path": ["parameters", "nperseg"], "value": 128}, "version": 24}
{"obj": {"type": "AssignInt", "path": ["parameters", "noverlap"], "value": 127}, "version": 25}
{"obj": {"type": "AssignString", "path": ["parameters", "window"], "value": "('tukey', 0.25)"}, "version": 26}
{"obj": {"type": "AssignString", "path": ["parameters", "loss_fn"], "value": "L1Loss()"}, "version": 27}
{"obj": {"type": "AssignString", "path": ["parameters", "architectureString"], "value": "Sequential(\n  (in): residualBlockConcat(\n    (linear): Linear(in_features=5655, out_features=512, bias=True)\n    (bn): BatchNorm1d(5655, eps=1e-05, momentum=0.1, affine=True, track_running_stats=True)\n  )\n  (residConcat0): residualBlockConcat(\n    (linear): Linear(in_features=6167, out_features=512, bias=True)\n    (bn): BatchNorm1d(6167, eps=1e-05, momentum=0.1, affine=True, track_running_stats=True)\n  )\n  (residConcat1): residualBlockConcat(\n    (linear): Linear(in_features=6679, out_features=512, bias=True)\n    (bn): BatchNorm1d(6679, eps=1e-05, momentum=0.1, affine=True, track_running_stats=True)\n  )\n  (residConcat2): residualBlockConcat(\n    (linear): Linear(in_features=7191, out_features=512, bias=True)\n    (bn): BatchNorm1d(7191, eps=1e-05, momentum=0.1, affine=True, track_running_stats=True)\n  )\n  (residConcat3): residualBlockConcat(\n    (linear): Linear(in_features=7703, out_features=512, bias=True)\n    (bn): BatchNorm1d(7703, eps=1e-05, momentum=0.1, affine=True, track_running_stats=True)\n  )\n  (out): Linear(in_features=8215, out_features=1, bias=True)\n)"}, "version": 28}
{"obj": {"type": "AssignInt", "path": ["parameters", "numParameters"], "value": 17175806}, "version": 29}
{"obj": {"type": "LogFloats", "path": ["monitoring", "3f4b4b1f", "cpu"], "values": [{"value": 0.1, "step": null, "ts": 1682253755.6183293}]}, "version": 30}
{"obj": {"type": "LogStrings", "path": ["monitoring", "3f4b4b1f", "stdout"], "values": [{"value": "Epoch 1\n-------------------------------", "step": null, "ts": 1682253755.6478636}]}, "version": 31}
…
