…
{"obj": {"type": "AssignInt", "path": ["parameters", "secondsInWindow"], "value": 1}, "version": 23}
{"obj": {"type": "AssignInt", "path": ["parameters", "nperseg"], "value": 128}, "version": 24}
{"obj": {"type": "AssignInt", "path": ["parameters", "noverlap"], "value": 127}, "version": 25}
{"obj": {"type": "AssignString", "path": ["parameters", "window"], "value": "('tukey', 0.25)"}, "version": 26}
{"obj": {"type": "AssignString", "path": ["parameters", "loss_fn"], "value": "L1Loss()"}, "version": 27}
{"obj": {"type": "AssignString", "path": ["parameters", "architectureString"], "value": "Sequential(\n  (in): residualBlockConcat(\n    (linear): Linear(in_features=5655, out_features=6167, bias=True)\n    (bn): BatchNorm1d(5655, eps=1e-05, momentum=0.1, affine=True, track_running_stats=True)\n  )\n  (residConcat0): residualBlockConcat(\n    (linear): Linear(in_features=6167, out_features=6679, bias=True)\n    (bn): BatchNorm1d(6167, eps=1e-05, momentum=0.1, affine=True, track_running_stats=True)\n  )\n  (residConcat1): residualBlockConcat(\n    (linear): Linear(in_features=6679, out_features=7191, bias=True)\n    (bn): BatchNorm1d(6679, eps=1e-05, momentum=0.1, affine=True, track_running_stats=True)\n  )\n  (residConcat2): residualBlockConcat(\n    (linear): Linear(in_features=7191, out_features=7703, bias=True)\n    (bn): BatchNorm1d(7191, eps=1e-05, momentum=0.1, affine=True, track_running_stats=True)\n  )\n  (residConcat3): residualBlockConcat(\n    (linear): Linear(in_features=7703, out_features=8215, bias=True)\n    (bn): BatchNorm1d(7703, eps=1e-05, momentum=0.1, affine=True, track_running_stats=True)\n  )\n  (out): residualBlockConcat(\n    (linear): Linear(in_features=8215, out_features=1, bias=True)\n    (bn): BatchNorm1d(8215, eps=1e-05, momentum=0.1, affine=True, track_running_stats=True)\n  )\n)"}, "version": 28}
{"obj": {"type": "AssignInt", "path": ["parameters", "numParameters"], "value": 242892276}, "version": 29}
{"obj": {"type": "LogFloats", "path": ["monitoring", "036bf6c5", "memory"], "values": [{"value": 25.213306427001953, "step": null, "ts": 1682198948.7338805}]}, "version": 30}
{"obj": {"type": "LogStrings", "path": ["monitoring", "036bf6c5", "stdout"], "values": [{"value": "Epoch 1\n-------------------------------", "step": null, "ts": 1682198948.7669227}]}, "version": 31}
…
{"obj": {"type": "LogStrings", "path": ["monitoring", "036bf6c5", "stdout"], "values": [{"value": " ", "step": null, "ts": 1682199022.4480712}]}, "version": 51}
{"obj": {"type": "LogStrings", "path": ["monitoring", "036bf6c5", "stdout"], "values": [{"value": "242892276", "step": null, "ts": 1682199022.4516597}]}, "version": 52}
{"obj": {"type": "LogStrings", "path": ["monitoring", "036bf6c5", "stdout"], "values": [{"value": "\n", "step": null, "ts": 1682199022.4538867}]}, "version": 53}
{"obj": {"type": "LogStrings", "path": ["monitoring", "036bf6c5", "stdout"], "values": [{"value": "Sequential(\n  (in): residualBlockConcat(\n    (linear): Linear(in_features=5655, out_features=6167, bias=True)\n    (bn): BatchNorm1d(5655, eps=1e-05, momentum=0.1, affine=True, track_running_stats=True)\n  )\n  (residConcat0): residualBlockConcat(\n    (linear): Linear(in_features=6167, out_features=6679, bias=True)\n    (bn): BatchNorm1d(6167, eps=1e-05, momentum=0.1, affine=True, track_running_stats=True)\n  )\n  (residConcat1): residualBlockConcat(\n    (linear): Linear(in_features=6679, out_features=7191, bias=True)\n    (bn): BatchNorm1d(6679, eps=1e-05, momentum=0.1, affine=True, track_running_stats=True)\n  )\n  (residConcat2): residualBlockConcat(\n    (linear): Linear(in_features=7191, out_features=7703, bias=True)\n    (bn): BatchNorm1d(7191, eps=1e-05, momentum=0.1, affine=True, track_running_stats=True)\n  )\n  (residConcat3): residualBlockConcat(\n    (linear): Linear(in_features=7703, out_features=8215, bias=True)\n    (bn): BatchNorm1d(7703, eps=1e-05, momentum=0.1, affine=True, track_ru", "step": null, "ts": 1682199022.7046762}]}, "version": 54}
{"obj": {"type": "LogStrings", "path": ["monitoring", "036bf6c5", "stdout"], "values": [{"value": "\n", "step": null, "ts": 1682199022.7068822}]}, "version": 55}
{"obj": {"type": "LogStrings", "path": ["monitoring", "036bf6c5", "stdout"], "values": [{"value": "Warning: string series 'monitoring/036bf6c5/stdout' value was longer than 1000 characters and was truncated. This warning is printed only once per series.\n", "step": null, "ts": 1682199022.7088153}]}, "version": 56}
…
