…
{"obj": {"type": "AssignFloat", "path": ["parameters", "secondsInWindow"], "value": 1.0}, "version": 23}
{"obj": {"type": "AssignFloat", "path": ["parameters", "nperseg"], "value": 128.0}, "version": 24}
{"obj": {"type": "AssignFloat", "path": ["parameters", "noverlap"], "value": 127.0}, "version": 25}
{"obj": {"type": "AssignString", "path": ["parameters", "window"], "value": "('tukey', 0.25)"}, "version": 26}
{"obj": {"type": "AssignString", "path": ["parameters", "loss_fn"], "value": "L1Loss()"}, "version": 27}
{"obj": {"type": "AssignString", "path": ["parameters", "architectureString"], "value": "NeuralNetwork(\n  (model): Sequential(\n    (bn0): BatchNorm1d(5655, eps=1e-05, momentum=0.1, affine=True, track_running_stats=True)\n    (l0): Linear(in_features=5655, out_features=512, bias=True)\n    (r0): ReLU()\n    (bn1): BatchNorm1d(512, eps=1e-05, momentum=0.1, affine=True, track_running_stats=True)\n    (l1): Linear(in_features=512, out_features=512, bias=True)\n    (r1): ReLU()\n    (bn2): BatchNorm1d(512, eps=1e-05, momentum=0.1, affine=True, track_running_stats=True)\n    (l2): Linear(in_features=512, out_features=512, bias=True)\n    (r2): ReLU()\n    (bn3): BatchNorm1d(512, eps=1e-05, momentum=0.1, affine=True, track_running_stats=True)\n    (l3): Linear(in_features=512, out_features=512, bias=True)\n    (r3): ReLU()\n    (bn4): BatchNorm1d(512, eps=1e-05, momentum=0.1, affine=True, track_running_stats=True)\n    (l4): Linear(in_features=512, out_features=512, bias=True)\n    (r4): ReLU()\n    (bn5): BatchNorm1d(512, eps=1e-05, momentum=0.1, affine=True, track_running_stats=True)\n    (l5): Linear(in_features=512, out_features=1, bias=True)\n  )\n)"}, "version": 28}
{"obj": {"type": "LogFloats", "path": ["monitoring", "df46ef0f", "cpu"], "values": [{"value": 0.1, "step": null, "ts": 1681921669.5833442}]}, "version": 29}
{"obj": {"type": "LogStrings", "path": ["monitoring", "df46ef0f", "stdout"], "values": [{"value": "Epoch 1\n-------------------------------", "step": null, "ts": 1681921669.6118205}]}, "version": 30}
…
